…
015, hsv_s=0.7, hsv_v=0.4, degrees=0.0, translate=0.1, scale=0.5, shear=0.0, perspective=0.0, flipud=0.0, fliplr=0.5, bgr=0.0, mosaic=1.0, mixup=0.0, copy_paste=0.0, copy_paste_mode=flip, auto_augment=randaugment, erasing=0.4, crop_fraction=1.0, cfg=None, tracker=botsort.yaml, save_dir=runs/train/SSDD/point/yolo11-CDFA-EDGE_OBB_bt32_600lun2
Overriding model.yaml nc=80 with nc=1
WARNING ⚠️ no model scale passed. Assuming scale='n'.

                   from  n    params  module                                       arguments                     
  0                  -1  1       464  ultralytics.nn.modules.conv.Conv             [3, 16, 3, 2]                 
  1                  -1  1      4672  ultralytics.nn.modules.conv.Conv             [16, 32, 3, 2]                
  2                  -1  1      6640  ultralytics.nn.modules.block.C3k2            [32, 64, 1, False, 0.25]      
  3                  -1  1     15936  ultralytics.nn.extra_modules.block.MutilScaleEdgeInfoGenetator[64, [32, 64, 128]]           
  4                   3  1         0  ultralytics.nn.extra_modules.CTrans.GetIndexOutput[0]                           
  5                   3  1         0  ultralytics.nn.extra_modules.CTrans.GetIndexOutput[1]                           
  6                   3  1         0  ultralytics.nn.extra_modules.CTrans.GetIndexOutput[2]                           
  7                   2  1     36992  ultralytics.nn.modules.conv.Conv             [64, 64, 3, 2]                
  8                  -1  1     26080  ultralytics.nn.modules.block.C3k2            [64, 128, 1, False, 0.25]     
  9             [4, -1]  1     55808  ultralytics.nn.extra_modules.block.ConvEdgeFusion[[32, 128], 128]              
 10                  -1  1    147712  ultralytics.nn.modules.conv.Conv             [128, 128, 3, 2]              
 11                  -1  1     87040  ultralytics.nn.modules.block.C3k2            [128, 128, 1, True]           
 12             [5, -1]  1     57856  ultralytics.nn.extra_modules.block.ConvEdgeFusion[[64, 128], 128]              
 13                  -1  1    295424  ultralytics.nn.modules.conv.Conv             [128, 256, 3, 2]              
 14                  -1  1    346112  ultralytics.nn.modules.block.C3k2            [256, 256, 1, True]           
 15             [6, -1]  1    230400  ultralytics.nn.extra_modules.block.ConvEdgeFusion[[128, 256], 256]             
 16                  -1  1    164608  ultralytics.nn.modules.block.SPPF            [256, 256, 5]                 
 17                  -1  1    249728  ultralytics.nn.modules.block.C2PSA           [256, 256, 1]                 
 18                  -1  1   2830096  ultralytics.nn.extra_modules.block.ContrastDrivenFeatureAggregation[256]                         
 19                  -1  1         0  torch.nn.modules.upsampling.Upsample         [None, 2, 'nearest']          
 20            [-1, 12]  1         0  ultralytics.nn.modules.conv.Concat           [1]                           
 21                  -1  1    111296  ultralytics.nn.modules.block.C3k2            [384, 128, 1, False]          
 22                  -1  1         0  torch.nn.modules.upsampling.Upsample         [None, 2, 'nearest']          
 23             [-1, 9]  1         0  ultralytics.nn.modules.conv.Concat           [1]                           
 24                  -1  1     32096  ultralytics.nn.modules.block.C3k2            [256, 64, 1, False]           
 25                  -1  1     36992  ultralytics.nn.modules.conv.Conv             [64, 64, 3, 2]                
 26            [-1, 21]  1         0  ultralytics.nn.modules.conv.Concat           [1]                           
 27                  -1  1     86720  ultralytics.nn.modules.block.C3k2            [192, 128, 1, False]          
 28                  -1  1    147712  ultralytics.nn.modules.conv.Conv             [128, 128, 3, 2]              
 29            [-1, 18]  1         0  ultralytics.nn.modules.conv.Concat           [1]                           
 30                  -1  1    378880  ultralytics.nn.modules.block.C3k2            [384, 256, 1, True]           
 31             [4, 24]  1     14592  ultralytics.nn.extra_modules.block.ConvEdgeFusion[[32, 64], 64]                
 32             [5, 27]  1     57856  ultralytics.nn.extra_modules.block.ConvEdgeFusion[[64, 128], 128]              
 33             [6, 30]  1    230400  ultralytics.nn.extra_modules.block.ConvEdgeFusion[[128, 256], 256]             
 34        [31, 32, 33]  1    502534  ultralytics.nn.modules.head.OBB              [1, 1, [64, 128, 256]]        
YOLO11-CDFA-EDGE summary: 446 layers, 6,154,646 parameters, 6,150,534 gradients, 10.9 GFLOPs

[34m[1mTensorBoard: [0mStart with 'tensorboard --logdir runs/train/SSDD/point/yolo11-CDFA-EDGE_OBB_bt32_600lun2', view at http://localhost:6006/
Freezing layer 'model.34.dfl.conv.weight'
[34m[1mAMP: [0mrunning Automatic Mixed Precision (AMP) checks with YOLO11n...
[34m[1mAMP: [0mchecks passed ✅
…
